lung_cancer_model.pth (torch, 30034 bytes, 11 tensors)

model.0.weight f4 [64, 15]
00000000: 4511 87bb 9e99 85bb 5008 563d de36 503b
00000010: c9a6 16bb 2c51 22bd 62f5 233d b8fb 92bb
00000020: 9cb5 073c 3054 593c a09d 933b 2db3 bf3b
00000030: c8b4 b33a f725 45bc 98fa 173c 31ae 21bb
00000040: 2185 833a c716 a7bd fea7 a23b c9cc 3abb
00000050: 34bb 993b ed50 bab9 d20b bfbb 46e5 553c
00000060: 986b 2fb9 fc7a 633d 5196 99bc ae28 423b
00000070: 0b8a 18bb e370 62bd 5e75 933a 62f7 55ba
00000080: 6ed6 fb3b fe1f 7d3a 845f 153c bdbc d8bb
00000090: b743 dc3b 3642 5f3b 970d c9bb 0ab2 0f3c
000000a0: d93a 64bb 56da a0bc 84ba f6ba 67f4 ce3c
000000b0: 0474 be3b f4ec f4bc a405 ee3a 78e2 c2bb
000000c0: f05d d03a 18c8 c73c 46d6 93ba bc8d 64bb
000000d0: 4230 0c3b c68c 0fbb 265a 01b9 449e 163c
000000e0: 85a6 e83b a7a0 a1ba a3e2 943b 355c be3b
000000f0: 205f 9fb8 7edf 153c 0b4b 07bc c5e1 d7bb
00000100: 6ede 0ebb 9194 4bbd 020e 4339 7aa2 30bd
00000110: 253c de3c 48bb 9d3b ffbc 2cbb 6ddd 10bb
00000120: c067 203c 7910 853b 3a9a e6bb 8133 1f3b
00000130: 778e 04bd 4dcb bd3b 7c5e 62bb 8cda a43c
00000140: 9903 bcbb 0080 053b ca14 dc3b b206 3e3d
00000150: 8482 0b3c 32e8 003d 4dd1 a7bb 5080 95bb
00000160: 19c5 78bb 8906 c8bc 577b 73ba 6f21 e03a
00000170: 6427 b53b da9f 1c3c e5cd 233c ee87 f83a
00000180: d66b 3e3b 803e 9c3a 3a22 07bc fedd c83b
00000190: efea 12bc adc9 9fbb d565 153c 6e27 2abc
000001a0: f660 d13c 8bbc b2ba fdb7 06bc 72f7 86bb
000001b0: 0c3a 173c 586c 21bb ac06 cf3c b519 05bc
000001c0: 9f08 933b 535f 5c3a 0775 0eba 3e7f abba
000001d0: 51b2 d13c 1c82 353b 7849 20ba 6411 edba
000001e0: a5e6 f53b a832 ecba aab1 233c db4c edbc
000001f0: 716e 4b3b 2d2e 0abc a08e 063b 18ea a9bb
00000200: f109 b8bb 2648 6bba 335d c93c 3bd5 34bd
00000210: 3e50 4e3b 39af df3a 5121 5cbb b956 c6bc
00000220: 1f56 0e3d e858 803c 1a3a 0ebd 7d38 e1bc
00000230: ccc4 fa3c 276d 2ebd 4dbf 9ebb b5f3 ca3c
00000240: fc9d b4b9 e987 4d3a 5701 17bc d68b 553b
00000250: 9755 813a e56f 013d 2ebb acbb 70bb 44bb
00000260: db78 0b3b 7e37 f7bb 701d d639 0831 a8bb
00000270: 7a3c 37bb 08c1 463b 917d d6b9 0e5d cb3b
00000280: 0618 0bba b513 b2ba fc33 35bc c331 3a3d
00000290: ffcb 9dbb f966 8f3b fb03 93bb 14da 2cbd
000002a0: da0b 03bc aa86 44bd 575f b03a e666 a83b
000002b0: 707c d6b8 4486 0c3d 9807 2cbb 6bc8 95ba
000002c0: f3a9 e23c cf9e 9bba 96e9 a1ba 9818 abba
000002d0: ce55 fabb a8dd bf3c b3f1 1ebd 9d15 1abb
000002e0: d827 dabc 4477 10bc df81 c43c dc97 c63a
000002f0: 1698 8439 7036 55bc 594e 8f3a 132d 963c
00000300: 9299 b5ba 804e a037 fdbd cebb 740f 4cbb
00000310: 8a31 e2ba 2cd1 813b d12a 2cbd 3044 02bc
00000320: 8a27 45bb de44 883a de7d 07bd 2978 d43b
00000330: 5aee e2bc 6a4b 10ba e4b1 bdbb cf7c dd3b
00000340: cd77 123c 18ef cab9 a170 313c 9687 bfbc
00000350: aa1c 683a daa9 c03c a305 db3a fc6b e03b
00000360: a890 beba 3117 beba 5354 973b 50c2 f9ba
00000370: 2d93 06bd 86f7 25bb 9919 8a3a aa4a 0b3c
00000380: 8da2 b63b db6a 48bb 0f1b 313c 8361 d2bb
00000390: 2f3d 023c fde5 043c 10e8 6b3a 8cef afb9
000003a0: e46a 9bbb f9b5 553d 14a7 a9bc 39da fcba
000003b0: 8e19 8aba da0b d4bc 42af 873a 0215 32bc
000003c0: 88b4 0d3c 9704 7e3b fb3f 673b e8d2 c83b
000003d0: 4b75 733d 9f65 5fbb 02cb e4bb f482 1e3b
000003e0: b8f2 133a c7bf 0bbd d569 e1ba 83b2 693b
000003f0: facd 263c 873a 7d3d b38a 973a c710 6abb
-0.0041219317 -0.0040771505 0.05225402 0.0031770985 -0.0022987595 -0.039628193 0.040028937 -0.0044855736
0.008283045 0.013264701 0.0045048743 0.005850217 0.0013710493 -0.012032977 0.009276055 -0.0024670477
0.0010034182 -0.08158641 0.004963874 -0.002850341 0.004691506 -0.0003553698 -0.0058302665 0.013055151
-0.00016729382 0.05553721 -0.018748434 0.0029626298 -0.002327564 -0.05528344 0.0011250188 -0.0008162168
0.007685474 0.0009655951 0.009117011 -0.006614296 0.0067219394 0.0034066564 -0.0061356532 0.008770475
-0.0034825115 -0.01963536 -0.0018823897 0.025263024 0.00581217 -0.029898144 0.001815964 -0.0059474073
0.0015897136 0.024387404 -0.0011279068 -0.003487452 0.0021391069 -0.0021903976 -0.00012335982 0.009193007
0.007099929 -0.0012331203 0.0045436188 0.005809332 -7.599429e-05 0.009147523 -0.008257638 -0.006588193
-0.002180006 -0.04970223 0.00018601867 -0.0431237 0.027128289 0.0048135854 -0.0026357768 -0.0022104636
0.009790361 0.0040608016 -0.007037428 0.0024292173 -0.032362428 0.0057920576 -0.003454118 0.020123743
-0.0057377336 0.0020370483 0.0067163454 0.046393104 0.008515004 0.03147144 -0.005121386 -0.004562415
-0.0037959276 -0.024417179 -0.00092880934 0.0017099808 0.0055283774 0.009559596 0.00999782 0.0018961409
0.0029055974 0.0011920482 -0.008247906 0.006129979 -0.008967145 -0.0048763365 0.009118517 -0.010385377
0.02555893 -0.0013636512 -0.008222577 -0.0041188532 0.009230148 -0.0024631228 0.025271736 -0.008123805
0.0044871117 0.00084065384 -0.00054343086 -0.0013084186 0.025597723 0.002769596 -0.00061144633 -0.0018086848
0.0075043016 -0.0018020468 0.009991089 -0.028967312 0.003104117 -0.008433861 0.0020531788 -0.005185377
-0.0056164195 -0.00089752895 0.024580574 -0.044148665 0.0031480934 0.001706577 -0.0033589194 -0.024211274
0.0347501 0.015667394 -0.03472338 -0.027492756 0.030611418 -0.042584565 -0.004844582 0.024774412
-0.00034449983 0.00078403816 -0.009216628 0.003258457 0.0009867427 0.03160085 -0.005271337 -0.0030018948
0.0021281752 -0.007544457 0.00040839193 -0.005132798 -0.002795963 0.0030327458 -0.00040910815 0.0062061613
-0.0005306009 -0.0013586195 -0.011059757 0.045457613 -0.004815578 0.004376289 -0.0044865585 -0.042200163
-0.007998431 -0.04797999 0.0013456148 0.0051392196 -0.000102274935 0.034307733 -0.0026249643 -0.0011427527
0.027668929 -0.001187289 -0.0012352939 -0.0013053594 -0.0076396232 0.023421124 -0.03880472 -0.0023511418
-0.026630327 -0.008817498 0.023987709 0.0015151459 0.00025290315 -0.013013467 0.0010933384 0.01833204
-0.0013854972 1.911004e-05 -0.0063092695 -0.003113714 -0.0017257195 0.003961703 -0.04203302 -0.0079508275
-0.0030083382 0.0010396501 -0.03307902 0.006484051 -0.027701546 -0.00055044016 -0.0057890285 0.006759263
0.008939696 -0.0003870658 0.0108300755 -0.023380082 0.0008854369 0.023518492 0.0016710054 0.0068488102
-0.001453896 -0.0014502761 0.0046182065 -0.0019055102 -0.0328552 -0.0025324537 0.0010536193 0.008501688
0.005573577 -0.003058127 0.010809674 -0.0064203157 0.007949158 0.008111474 0.00089991186 -0.00033557077
-0.004742967 0.052175496 -0.020709552 -0.001929111 -0.001053618 -0.025884558 0.0010351914 -0.010869266
0.008648999 0.003876006 0.0035285938 0.0061286576 0.05943803 -0.003408767 -0.006982208 0.002418694
0.0005643773 -0.03411844 -0.0017197678 0.003565938 0.010180945 0.061823394 0.0011561721 -0.0035715566

model.0.bias f4 [64]
00000000: e5ef f4ba 339e 883c eb8f fcbb 9e47 84ba
00000010: 17a0 60bb abd9 6839 4f2e 143b f7d6 10bd
00000020: 97dd 2bbd 328b 183d 7a82 f73c 6ca2 b03c
00000030: d8bc 803b c86c 8abb c6da 1fbc aa7c 8ebd
00000040: 6c4c 39bd 440e 4e3d a2bd 483b 9484 0fbd
00000050: fabc 8abb f174 01bd 5c12 713d 8746 e2bb
00000060: f431 8dbb b795 67bc 8dc2 53bc 29d3 de3d
00000070: 4fd9 8bbd 59d4 5ebd 22b9 813d 593a 8c3b
00000080: a1bb a0bc 3c19 823c 9636 2bbb f794 023d
00000090: 5853 ab3d f8b9 af3d 722a 583b d9f3 57bd
000000a0: 8464 423d f8d2 4c3c dde6 e93c 1994 1dbb
000000b0: 8dfb 1dbc 268c aabc ec36 2ebd b02d 3e3c
000000c0: fca4 3cba aaa9 6cbb e87f 18bd 2aae 9d3c
000000d0: d586 0b3d ff2f 13bc ea2f 523b d7ad 93bb
000000e0: f2ee 283d 7402 983d 56dd d63b 5a2e 2b3c
000000f0: 5d39 e0bc 9192 00bd fdea 61bc 8db8 f23a
-0.0018687217 0.016676998 -0.007707586 -0.0010092144 -0.0034275108 0.00022206332 0.002261061 -0.035361256
-0.04195937 0.037242122 0.030213583 0.021561824 0.003928762 -0.0042243935 -0.0097567495 -0.069573715
-0.045238897 0.050306574 0.0030630608 -0.035038546 -0.0042339535 -0.031605665 0.0588554 -0.00690538
-0.0043089334 -0.014134816 -0.0129248025 0.10880119 -0.06828558 -0.05440173 0.063341394 0.0042794165
-0.019620718 0.015881173 -0.0026125065 0.031880345 0.08365506 0.085803926 0.0032984284 -0.052722786
0.04745914 0.012501471 0.028552467 -0.0024044572 -0.009642494 -0.020818781 -0.042532846 0.011607572
-0.00071962154 -0.003611187 -0.037231356 0.019248087 0.034064133 -0.008983611 0.0032072016 -0.0045068073
0.0412435 0.07422343 0.006557147 0.010448063 -0.027371103 -0.031389777 -0.013788936 0.0018518135

model.2.weight f4 [48, 64]
00000000: 3648 4dba 6cfc 90bb f4a9 3e3b 32dd 003c
00000010: 9253 d33a bccd cdba d1a3 793a 3821 2d3b
00000020: 9ec5 8ebb cf28 0bbc 4bd2 083c fe54 5ebb
00000030: f1db 8bb9 a3e7 bd3b 223f 77bb 7c0f 123c
00000040: babe 07bc 9eca cbbb 8536 593b 107b 553b
00000050: 1608 e63a 9eda 763a 67a2 8c3b 9665 c4bb
00000060: 4618 87bb afe4 c63a 5563 16bb 0b1b 9dbb
00000070: 4aa4 15bc 94a5 283b 1e05 7ebb fdc0 9bbb
00000080: 5d99 083c c0ff 4bbb c6bf 023b 8680 b33a
00000090: 44cd 0f3c f586 163a ea27 e7ba 7a9c d63a
000000a0: ee6d 71bb 3897 31bb bc0d 05b9 8318 d73b
000000b0: 8316 963b 3398 2d3b 8f1a 7bba 060b 143b
000000c0: 6056 20bb 0e38 bb3b a00b d33a 6d58 123b
000000d0: cd1b 2f3c 6470 65bb 6e34 293b 1cfe b23a
000000e0: a6bf 0a3b 4735 b6bb 3c0b 7b3b d0d8 c9ba
000000f0: 8afd c6bb 7a1d 553b 86fd 483b eeb4 47ba
00000100: 784d 18bc 8b92 26bc 83bd 01bc 7205 c1ba
00000110: 1447 23bc 4250 f53b f3cc 1ebc e7a2 6bbb
00000120: cd26 9a3b 1c99 593b 9617 e53b f10f 2dbc
00000130: eeac fbbb 5ead 3fba 12b2 f53b a4ab 223b
00000140: c339 6dbb e912 bb3b 1c9a ec3b 13e4 2cbb
00000150: dfa2 803b 5c02 2cbb 0092 a83a 364e 87bb
00000160: fc09 3cb9 4c15 1d3a 35ea ae3b 33fb 41bc
00000170: a8aa 46bb 5649 b6ba 4ec1 50bb 0cc5 0aba
00000180: 8d2c 95bb e971 a1bb 94a8 2fbb c6f2 19bb
00000190: b091 fabb cac1 edbb ee07 f739 0a73 453b
000001a0: 448e 17bb 6443 fbbb 91a9 ae3b 3f91 013c
000001b0: 218f f3bb 0df5 0a3c 7218 d2ba e2ff 04bc
000001c0: aa4c 1abc be37 d7ba 7c52 953b 5074 faba
000001d0: 2f3d bbbb ac34 28bc 74d2 d4bb 1b0e 173c
000001e0: e7fe 893b 2e65 013c 725e a63b 58b4 923a
000001f0: 2b02 953b c16c cb3b 22f8 853b d1ed 77bb
00000200: f92f 92bc 3329 373d 0176 cc3c 0220 d9bb
00000210: eb0f e03c bf14 6b3c 98e9 773c 5f64 c3ba
00000220: 39d2 51ba f2bf 193d 17e9 a13a 483d 14bc
00000230: 5e37 fc3c fc31 963b 544f ec3c bc39 b7ba
00000240: 88b9 b03c a19f ea3c b47e c73a 4b91 f43b
00000250: 7cde 0c3b c2bb 243c 51d2 94bc 101e 983c
00000260: 9c38 d53a 8af9 a73c a9dc 8b3a 09ee 583d
00000270: 768d d93b 318e b63a e6aa 8d3c 8298 f33c
00000280: ac81 17bc 864c 763d 4c85 d1bb 99f3 e6bb
00000290: e6c3 9a3d 94aa 28bc 6382 293b bcde 6f3b
000002a0: d6fe 973d d73c 733c 9c70 a53c c01b 1e3d
000002b0: 85a1 583d faf9 1e3d 76de 6239 a24f 523d
000002c0: 0abf 843c 421c 1d3d 4178 9e3b c113 7a3c
000002d0: edff 2a3d 6381 433c 54df f63c da95 7a3d
000002e0: d256 2d3d e5a0 48bb e3fd 083c 3e2e dbbb
000002f0: 01ef 5b3b 04b2 583b 9198 f13b 5cdf adbb
00000300: dea8 68bb 9b8d 823b 3258 8dbb 5a01 623a
00000310: 8f98 843b 4567 0e3c 71b1 eeba d58e 18bc
00000320: ac91 15bc e033 68bb 64c8 b13a aca7 73b9
00000330: 6e9d 87bb ecd2 77bb 8153 2b3b 2969 baba
00000340: 0829 903a bccf 773b cf5c faba 6e6d a539
00000350: 4a20 a63a 5335 88bb 2c45 4dbb 65f5 243a
00000360: 8058 d337 b887 273a 3222 5e39 451b 173b
00000370: af24 05ba e87f a83a 244b 8cbb 8471 8cba
00000380: 8f71 113b bbec edba 940f 93bb ed77 073a
00000390: aea2 853b a7bf 89bb 72f6 233b 7320 51ba
000003a0: 1f7d 56ba bc86 68ba 66a2 a3bb ebcf 10bb
000003b0: 5c6f 9bbb 74e9 bd39 2a5b 9139 04c5 663a
000003c0: 9eb3 ed3a b843 b3bb 4027 163c 5cc0 dfba
000003d0: f7db 8a3b b6dd daba 8221 223a 3c70 573b
000003e0: ece9 4e39 e10f 113b e1dd 813b a1f0 773b
000003f0: 94e5 07bc 2892 1aba c839 47bb 13ca ab3a
-0.00078308897 -0.0044246223 0.0029093 0.007865237 0.0016122928 -0.0015701572 0.0009523007 0.0026417505
-0.004357054 -0.008493616 0.008350919 -0.003392517 -0.00026676015 0.0057954355 -0.003772684 0.008914825
-0.008285219 -0.006219222 0.0033144068 0.0032574572 0.0017550017 0.0009416732 0.004291821 -0.0059935553
-0.0041227667 0.0015174354 -0.002294739 -0.0047944835 -0.009133408 0.0025733458 -0.0038760374 -0.0047532306
0.008337346 -0.003112778 0.0019950732 0.0013694919 0.0087769665 0.0005742156 -0.0017635797 0.0016373538
-0.0036839205 -0.002709819 -0.00012688985 0.0065642013 0.0045803203 0.0026488423 -0.00095788477 0.0022589578
-0.0024465546 0.0057134693 0.0016101487 0.0022330538 0.010687781 -0.0035009617 0.0025818604 0.0013656053
0.002117136 -0.0055605504 0.0038306257 -0.0015399698 -0.0060727047 0.003251879 0.003066869 -0.0007618208
-0.009295814 -0.0101667745 -0.007918718 -0.0014726354 -0.009965677 0.007486374 -0.009692418 -0.0035955252
0.0047043324 0.0033202833 0.006991337 -0.010562883 -0.007680527 -0.00073119055 0.0074980343 0.0024821544
-0.0036197759 0.0057090414 0.0072205197 -0.002638106 0.0039256657 -0.0026246523 0.0012860894 -0.0041291965
-0.00017932797 0.0005992248 0.0053379782 -0.011839676 -0.0030314121 -0.0013907354 -0.00318535 -0.00052936445
-0.00455243 -0.004926909 -0.0026803361 -0.0023490652 -0.007646762 -0.0072557675 0.0004711742 0.0030128383
-0.0023125568 -0.0076679457 0.0053302725 0.0079081645 -0.007432834 0.008481276 -0.0016029014 -0.008117648
-0.009417692 -0.0016419811 0.004556952 -0.001910815 -0.0057140808 -0.010266464 -0.0064948145 0.009219672
0.004211295 0.007897658 0.0050771767 0.0011192663 0.0045473776 0.006208033 0.0040884176 -0.0037830959
-0.01784514 0.044717025 0.024958612 -0.00662613 0.02735134 0.014348208 0.015131377 -0.0014907232
-0.0008004043 0.03753657 0.0012352791 -0.009047814 0.03078812 0.0045835953 0.02884642 -0.0013978998
0.021572843 0.02864057 0.0015220256 0.0074636093 0.0021494916 0.010054531 -0.018166693 0.018569022
0.0016267481 0.020504732 0.001067062 0.052961383 0.006639178 0.0013927874 0.017293405 0.029735807
-0.009247225 0.060131572 -0.006394064 -0.007048082 0.07556896 -0.010294575 0.002586507 0.0036601266
0.07421653 0.014846048 0.020195298 0.038600683 0.052888412 0.038812615 0.00021635913 0.051345475
0.016204376 0.038357027 0.0048361127 0.015263499 0.041747976 0.011932704 0.030135788 0.061178066
0.042319126 -0.0030613479 0.008361313 -0.006688862 0.0033559205 0.003306509 0.0073729237 -0.0053061675
-0.0035501043 0.003984166 -0.004313492 0.0008621417 0.0040465067 0.008691614 -0.0018210841 -0.009311398
-0.009128969 -0.003543131 0.0013563749 -0.00023236749 -0.00413864 -0.0037814928 0.0026142302 -0.0014222014
0.0010998556 0.0037813028 -0.0019101145 0.00031552784 0.0012674418 -0.0041567474 -0.0031321747 0.000629267
2.5194371e-05 0.0006390768 0.00021184309 0.0023057025 -0.00050790136 0.0012855502 -0.0042814184 -0.0010714983
0.002219293 -0.0018152216 -0.004487941 0.00051677116 0.004078231 -0.004203755 0.002501872 -0.00079775526
-0.00081820966 -0.00088701746 -0.0049937246 -0.0022096585 -0.0047434997 0.00036222825 0.00027724478 0.00088031613
0.0018135195 -0.005470719 0.009164631 -0.0017070877 0.0042376476 -0.0016698155 0.00061848026 0.0032873293
0.00019732834 0.0022134709 0.0039632176 0.0037832635 -0.008294482 -0.0005896413 -0.003039943 0.0013106487

model.2.bias f4 [48]
00000000: 1cfa 853b 1018 e63b 3818 ba3d 7605 1abb
00000010: 3cb2 e43c c5fd 893c df6d 86bb 669c c43a
00000020: 2ce9 06bb 73e7 66bb d0a6 c1bb 8c48 fcbb
00000030: 05b2 69bc 8f5c dcbc 4c59 c93b 9ab2 133d
00000040: e21d b13d 4c90 423c 1346 62bc 6a41 18bb
00000050: d583 acbc 0d31 bdb9 5dc2 d13b 37c7 e03b
00000060: 4007 483d ad37 6c3d 14a3 633c 25ba 1fbb
00000070: f3af 0c3d 0a4c 9f3d 5e03 723b b5db fabb
00000080: 3719 503b a91b 723d 4302 e13d 0118 89bb
00000090: f0b4 f13b 743b 303d fe01 5d3c 4d9c 8cbc
000000a0: b6c9 62bc 03a0 03bc e767 07bb 712b e4bb
000000b0: 34f5 9e3d f0c5 fc3b e400 cf3b 0d79 d13d
0.0040886533 0.0070219114 0.090866506 -0.002350179 0.02791702 0.01684464 -0.004102453 0.0015000224
-0.0020585759 -0.003523317 -0.005909778 -0.007699078 -0.014263635 -0.026899604 0.006144678 0.036059
0.08648278 0.011875223 -0.013810652 -0.002323235 -0.021058956 -0.00036085435 0.0064013437 0.0068596858
0.04883504 0.057670284 0.013893861 -0.0024372425 0.034347486 0.07778175 0.0036928277 -0.0076555857
0.003175331 0.05910841 0.109867595 -0.0041837697 0.0073763058 0.04302545 0.0134892445 -0.017164374
-0.013842037 -0.008033755 -0.0020661296 -0.0069631864 0.077616125 0.0077140257 0.006317245 0.10228167

model.4.weight f4 [32, 48]
00000000: b093 1dbb 71e8 08bb e4ca 04bc cb0c cbba
00000010: 4e6a 713b 561d 1cbc e30a 843b 0d9e 873a
00000020: 5436 5c3b 96bf dabb e058 02ba 4edb 9db9
00000030: 7294 af3a f165 153b 1ff6 6fba d632 203c
00000040: b86f db3b 023c 953b 795e 2a3a 3807 1a3b
00000050: 9237 56ba 226d 8dbb 8bb0 e53a dda9 ea39
00000060: f252 49ba eb04 f5bb af54 4bbb bf63 abbb
00000070: 5de2 edbb 6687 77bb 12e7 b3b9 10c8 0f3b
00000080: 58fe 2839 dfdf 003c ed95 60bb 0ab4 4dbb
00000090: 1744 87bb c1ae 023c 89c9 18bc 2a1b 5ebb
000000a0: 2c29 443b 4477 f3ba fde3 b93b ccc1 1b3c
000000b0: 1d02 96bb 31d2 353b f7c0 25bc fa06 11bc
000000c0: 0626 69bb d47d 3dbb 43a4 f63b aae9 d13a
000000d0: 1545 c63b 189f 94bb 2b6d 22bc 14a2 f0bb
000000e0: 0eb2 4c39 a6db b13b d69d cf38 cdf0 79bb
000000f0: 9282 f83a 0c9e a6bb 15c8 b1bb 0682 be39
00000100: 23c5 d43b 1d05 233c 08c1 213c 659b 07bc
00000110: f41a 513a d5fc 0dbc def7 82bb b4f6 593b
00000120: 09b0 16bc 7189 f13b 5750 80bb f0b9 a839
00000130: 32ef 6f3a f0fd c83b 6e37 f03a ca4f 83ba
00000140: 23be aaba c0f2 90b9 5369 1abc 66c5 5ebb
00000150: d31a 1dbc 0d52 613b 3b6b 0bbc f080 7a3c
00000160: d5e4 cf3b 3ce6 9db9 b913 193c 0d93 533a
00000170: f3a4 5039 6fce a13b b266 83bc 2027 eb3a
00000180: 4ce2 583b f61e a83b cf7d b23c ee2e adbb
00000190: 9181 cdba 25fa 1d3c ac99 ea38 4496 ec3b
000001a0: 8af9 9339 8cf9 8d3b 06ad 743a 4bb6 d2bc
000001b0: 4d4f 19bb a0bb a93b 14d0 caba 60c4 86bb
000001c0: d309 1ebd 2285 363b e758 1a3c d0d0 e13a
000001d0: d2ac a63a c897 ddbb c2d0 16bb 9769 77bb
000001e0: 11ff 0ebc f285 033d fe92 35bb dc88 8c3a
000001f0: 314f 85bd eedb 1e3d 32ac 803b c86d 11bb
00000200: 78cf 603c bac2 623d e83d bdbb 9d5e 32bc
00000210: aaef 23bc bff1 163a 37c6 543c a564 003c
00000220: 7d29 00bc ca4b 773a 1c70 423b 1adb 153c
00000230: 604d 9ebb 2eeb ef3c 22eb 83bc 6b1c d13c
00000240: 7aac bb39 0c07 243c 5bce 05bb 1eba 64ba
00000250: eaf5 86ba 322f cc39 fdc5 3eba c98f 4bbb
00000260: 0b8a 09bc cb82 1f3c 5479 e3ba 353e 1bbc
00000270: ad37 1d3b ca2f 21bc 93b2 1bbb da2f eaba
00000280: 0720 81bb 9bea d539 8745 b6ba a1ce c3ba
00000290: 2065 e53a fe3f 1b3b 33e9 0e3c 25ac 9239
000002a0: 2cb3 fd3a 3310 9a3a 8ed1 053a b393 be3a
000002b0: 1f3b 2a3a d805 353b c3c4 5e3b edf2 8d3b
000002c0: 9f19 863a 23f7 20bc cecd 3dba 1682 873a
000002d0: 6314 b4b8 4c37 e6b9 d479 123a 2c3f 8f3b
000002e0: 206b 0bbb 4605 8abb dcd0 60ba ddc4 133b
000002f0: aef5 7fbb 29c3 073b 7953 233c 6e61 6ebb
00000300: 8b92 783b 9635 f2bc baff 913d e0d3 8abb
00000310: 21eb e8bc 6a33 0f3d d32e 833a 8067 be3b
00000320: 56dc 20bc aebc 1e3c dad3 a939 76e3 fe3c
00000330: b869 c73b 797c 103c ec7f 643b 6681 ae3b
00000340: a5c2 263d cf41 09ba 28cb 903a 47e8 ce3b
00000350: 9408 cfba 70ea 9a39 d23f 2cbb 97b3 b1bb
00000360: 4e25 c13c 74ab 4f3c 4f74 ae3b 80f8 06bc
00000370: 6f1c 7fbc ff0e 8b3d 71f2 58bb 40fb a337
00000380: 2e24 253d ee81 203d d122 393d 50a0 f73c
00000390: a001 1d3b 43de 523b 902f dc3d 1b48 bbbc
000003a0: 91eb 063c af10 29bc 36d4 c23c 2ac2 813a
000003b0: 9951 e23d cfe2 8c3c b126 4abb d2a1 9b3d
000003c0: dc5f 42bb 2cb4 9fbb 7098 8b3c cb36 5aba
000003d0: da84 d6bb 71c9 093b 40bd b2ba 1cff 2abb
000003e0: ae77 8abb eee3 84bb 5916 fd3a 3d7a 74ba
000003f0: 8735 2dbb 4d9a 67ba e98c 233c 467a ca39
-0.0024044327 -0.00208905 -0.0081050135 -0.0015491484 0.0036837044 -0.009528479 0.004029618 0.0010346785
0.0033601718 -0.006675671 -0.000497235 -0.00030108768 0.001339568 0.0022796358 -0.00091538014 0.009777745
0.0066966675 0.0045542726 0.0006499063 0.0023502838 -0.0008171733 -0.004315988 0.0017523927 0.00044758516
-0.00076799013 -0.007477393 -0.0031025817 -0.0052303965 -0.0072596506 -0.0037769913 -0.000343137 0.0021939315
0.00016116479 0.007865875 -0.003426905 -0.003138783 -0.00412799 0.007976235 -0.0093253935 -0.0033890703
0.0029931767 -0.0018574973 0.0056729303 0.009506654 -0.0045778886 0.0027743692 -0.010116807 -0.008851761
-0.0035575642 -0.002891411 0.0075269057 0.0016015072 0.0060507157 -0.004535567 -0.009913723 -0.00734354
0.00019521287 0.0054277955 9.8999284e-05 -0.0038137913 0.0018959811 -0.0050847586 -0.005425463 0.000363365
0.006493227 0.00994995 0.009872682 -0.008276795 0.00079767336 -0.008666237 -0.003996833 0.0033258619
-0.0091972435 0.0073711206 -0.0039158273 0.0003218199 0.00091527693 0.0061337873 0.0018327066 -0.0010018286
-0.0013026636 -0.00027646683 -0.009424525 -0.003399217 -0.009588915 0.0034381181 -0.008509452 0.01528953
0.0063444176 -0.00030116912 0.009343081 0.00080709235 0.00019897874 0.004937939 -0.01604018 0.0017940737
0.0033093868 0.005130644 0.021788506 -0.0052851355 -0.0015678873 0.009642159 0.00011186613 0.0072200615
0.00028223946 0.004332727 0.0009333644 -0.02572169 -0.0023393214 0.0051798373 -0.0015473389 -0.004112765
-0.038583588 0.002785035 0.00942061 0.0017228369 0.0012716299 -0.0067624785 -0.0023012613 -0.0037752145
-0.008727805 0.032110162 -0.0027706022 0.001072194 -0.06509245 0.03878396 0.0039267773 -0.002219068
0.013721339 0.055361487 -0.005775202 -0.010886815 -0.010005871 0.0005758069 0.012986711 0.0078364955
-0.007822392 0.00094335957 0.0029668873 0.009146476 -0.004831001 0.029286947 -0.016103331 0.025526246
0.00035795924 0.010011446 -0.0020417187 -0.00087252434 -0.0010296677 0.00038945075 -0.00072774274 -0.0031061044
-0.008394728 0.009735773 -0.0017354884 -0.0094752805 0.0023989484 -0.009838054 -0.0023757562 -0.0017867044
-0.0039405855 0.0004080132 -0.0013906219 -0.00149389 0.0017501451 0.0023689265 0.008722591 0.00027975548
0.0019355766 0.0011754095 0.00051047734 0.0014539867 0.0006493795 0.0027621891 0.003399179 0.0043319375
0.0010231024 -0.009824547 -0.0007240445 0.0010338451 -8.586866e-05 -0.00043910218 0.0005587612 0.0043715443
-0.0021273568 -0.0042120544 -0.00085760443 0.002254776 -0.0039056349 0.002071569 0.009968632 -0.003637399
0.0037929143 -0.029566567 0.07128854 -0.0042366832 -0.02843243 0.03496114 0.0010008462 0.005810678
-0.009818157 0.009688539 0.00032392034 0.031114321 0.0060856007 0.008818739 0.0034866286 0.005325484
0.04071297 -0.00052359415 0.0011046873 0.0063143107 -0.0015795403 0.00029547838 -0.0026283157 -0.00542302
0.023577359 0.012675155 0.0053239237 -0.008237958 -0.015570744 0.0678997 -0.003310349 1.9548112e-05
0.040317707 0.03918641 0.04519922 0.03022781 0.0023957267 0.0032175935 0.10751259 -0.022861531
0.008234874 -0.010318919 0.02378283 0.0009899784 0.1105072 0.017197995 -0.0030845816 0.07599224
-0.0029659187 -0.004873773 0.017040461 -0.0008324205 -0.006546599 0.002102461 -0.0013636723 -0.0026091998
-0.0042256927 -0.0040554916 0.0019309028 -0.0009326076 -0.002642961 -0.00088349433 0.009982326 0.00038619543

model.4.bias f4 [32]
00000000: 843c a3bb 931f 913d 2699 533d 0a9f 403b
00000010: 8afc 353e edff 4dbd 3239 2e3c 3d26 1dbd
00000020: c3e4 24bb f228 88bc b89e 393c ab65 e8bd
00000030: f828 ad3d bc84 9fbc 5066 a2bc b8cc b43d
00000040: 3c1e 023e 66a5 ba3b 60f0 a1bd 9019 1a3c
00000050: 923a a0bd f80e 2b3e 8b7d b63d a633 1b3c
00000060: ed18 683c 300c fb3d 3490 8b3b 85f3 3b3c
00000070: 5b1f ffbc 8e6d 85bd 6ea6 d53a 6e5e 143d
-0.0049815793 0.070861004 0.051659726 0.002939167 0.17772117 -0.050292898 0.010633754 -0.038366545
-0.0025160767 -0.016621087 0.011329345 -0.113475166 0.0845508 -0.019472472 -0.019824177 0.088281095
0.12706846 0.0056959866 -0.07907176 0.009405509 -0.078236714 0.16704929 0.08910664 0.009472763
0.014166099 0.12258184 0.0042591337 0.011471634 -0.031142881 -0.065150365 0.001630021 0.036222868

model.6.weight f4 [16, 32]
00000000: d598 bfbb 2ff0 1e3c a677 93bc fde6 c4ba
00000010: 9978 f1bc e8eb b93c 6236 fbba 5063 20bb
00000020: 99ad 233c c442 53ba d31c 92bb 0114 453c
00000030: 8e02 51bd aba7 853b 639b 103b b0ba 4fbd
00000040: 3924 e03c 4820 cbbb ed12 08bb 1a2c 04ba
00000050: 0163 023b 6a2d 97bb b081 25bc 9c77 0e3c
00000060: 7c6b 183c adf0 46bd 30b5 ecbb 4c5e 5a3b
00000070: 0ecb dd3a 7c41 6e3a 07e5 1a3c d2b6 a5bb
00000080: b62f 643b d5c8 b73b 2784 103d 43c3 713b
00000090: a428 3b3e 8498 0fbd af61 163c fa97 edba
000000a0: 507c e1bb 69e9 583c 7b53 263c 41c8 013c
000000b0: a339 4b3d f864 0d3c 9282 8c3b 446d 073e
000000c0: c405 763b 6053 d6ba 5fd9 72bb 6ed8 62ba
000000d0: c072 13b9 f24e 2a3e 2cb8 de3a 0ad1 dc3a
000000e0: e6b9 c6bb f636 853d 947d 7b3b 671e f73a
000000f0: caf6 bc3d b048 b439 e273 153c a8d6 1fba
00000100: c81c 4f3a 45e7 0bbb 472a 67bb 0625 8cbb
00000110: 46ee 0cbc 3660 8a3b 5b7d 29bb 9709 dd3a
00000120: d11c 793a 1f18 babb 9fa9 073b d781 1fbc
00000130: fef4 433a d9f3 23bc 7d77 793b 9a0a 3cbc
00000140: 0203 c4bb b458 8ebb dc11 6c3b e741 06bc
00000150: a4a5 723a 5f7a d4bb a751 1c3c fcf3 8fbb
00000160: 842d 09b9 b683 3bbb fbd1 8bbb fae0 083c
00000170: 4927 ef3b 5851 d8bb d77b 273a 9b81 25bc
00000180: 9f82 63bb 5d7b 20bd 183d a0bd 5195 8739
00000190: b7d9 2abe 5a51 d5bc aab9 0dbc 3059 99bb
000001a0: 76cc 70bb c198 d83c 3b5d adbb 1477 23bb
000001b0: 41ee e2bd 7ca9 d239 1e74 8c3c c097 3fbd
000001c0: c5d8 ed3a 4a62 f9bb 49e7 02bc 1653 cfbb
000001d0: ea30 a83c e158 813d 7737 c53c b365 d4bb
000001e0: d1d6 2b3d 51bf 13bd 3e82 6b3b 57df 533b
000001f0: 31b7 93bd bb88 a3bb f4e2 f0b9 f412 213d
00000200: d02e 6038 5684 653c 6680 943b 3856 00b8
00000210: 8abc 683c b812 16bc 2194 5dba a012 0cb8
00000220: ad97 1d3b 72f8 753b 60f9 9d3a 3584 6eba
00000230: 30fa 913c b089 1d3c 46b5 153c c893 713c
00000240: 6dd9 7a3c e698 07bb 0d5c 113b 482e 0d3c
00000250: d270 d9b9 b8cd b33c b3db 4c3c b37d d53b
00000260: 3c6f 16b9 510a 2d3c 7802 07bc 4aad 723b
00000270: 03f7 643b 1077 8dbb b808 e43a ac96 e73b
00000280: fcd9 2abb 87d1 3d3d ce5a d33d 44e9 34bb
00000290: 6448 d23d 562a d7bc 6a67 e3bb e665 383a
000002a0: be2f 413a fb94 793d 386b 1bbc 4207 a0bb
000002b0: eab5 af3d a3f1 143b 4ecc a83b 86b1 c33d
000002c0: 6a26 7a3d 66f5 2ebc 30a5 ccbb 385c 0cbc
000002d0: 198d bfbb 9968 ddba 5e45 97bb e618 6939
000002e0: 8b4c 483b c2af 9f3d 6e23 70bb d0e5 e03a
000002f0: 0e3d a53c 176e 6aba c0d5 b6bb 06d0 02bc
00000300: 2423 5e39 05f9 d83b c61e fdbc 18f3 b73b
00000310: aa23 7abd a7dc 213d 9fd8 693b 5acb a9bb
00000320: 81fb 1f3b 8183 7fba 733e 8fbb 47b8 c73a
00000330: 3e49 fbbd d6e6 cfba 3163 8539 9c67 e6bd
00000340: 5777 6c3d 2e45 dd39 405f e93a 965d 0abc
00000350: a891 953b a2c6 23bd 2261 f7bc 66ea a0ba
00000360: 8412 513b 9660 0abd 4180 cebb 2999 25bc
00000370: b4a7 693d e696 ac3b c68b b739 345c 44bb
00000380: a2eb abba 0f2c 85bd 208c 54ba 15a8 073c
00000390: c58b 063e af87 933d a753 863b 3ed6 e13c
000003a0: 7e8f 623a 89b8 d23d 97fc d23b 1db9 c6bc
000003b0: 5b6f 623e 4f7a 88bb 3f39 e53b 4758 85bc
000003c0: 1832 5e3e 7696 54ba aa18 1cba c0ee faba
000003d0: 04de 223d 016c 343e dffe 6abd 50e5 8d3b
000003e0: f56d 533d 1354 2f3d 7ee7 1d3c 848b 8d3b
000003f0: f4f5 3fbd 0b39 3a3d fc46 91bb 8353 d2bc
-0.0058470764 0.009700819 -0.018001389 -0.0015022453 -0.02947645 0.022695497 -0.0019165988 -0.0024473257
0.009990119 -0.000805896 -0.0044590025 0.012028695 -0.051027827 0.0040788255 0.0022065274 -0.05071515
0.027361022 -0.0061989166 -0.0020763234 -0.0005041972 0.0019895437 -0.004613568 -0.010101721 0.008695509
0.00930297 -0.04856937 -0.0072237477 0.0033320365 0.0016921477 0.00090887374 0.009454018 -0.0050571943
0.0034818477 0.005608658 0.03528228 0.0036890067 0.18277222 -0.03505756 0.009178563 -0.0018126958
-0.0068812743 0.013239243 0.010151739 0.007921279 0.049615514 0.00863003 0.004288026 0.13225275
0.0037540058 -0.0016351752 -0.0037055833 -0.00086534664 -0.0001406176 0.16631678 0.0016992143 0.0016846966
-0.0060646413 0.065046236 0.003837441 0.0018853665 0.09226759 0.00034386432 0.009121867 -0.0006097355
0.0007900712 -0.0021347564 -0.0035273002 -0.0042768745 -0.008601731 0.004222895 -0.0025862071 0.001686382
0.000950289 -0.005679145 0.0020700467 -0.009735546 0.00074751663 -0.010006868 0.0038065605 -0.011477137
-0.005981804 -0.0043440703 0.0036021387 -0.008194423 0.000925625 -0.0064843143 0.009540952 -0.004393099
-0.00013082294 -0.0028612441 -0.004266975 0.00835442 0.0072983843 -0.006601494 0.0006388998 -0.010101701
-0.0034715307 -0.03918015 -0.07824153 0.00025860456 -0.16684614 -0.026039768 -0.008650223 -0.0046798214
-0.0036742962 0.026440026 -0.005290655 -0.0024942802 -0.110805996 0.00040180597 0.017145213 -0.04677558
0.0018146267 -0.007610594 -0.007989713 -0.0063270433 0.020531137 0.063157804 0.0240743 -0.00648185
0.04195291 -0.036071125 0.0035935785 0.0032329166 -0.07212675 -0.004990665 -0.0004594546 0.039324716
5.344936e-05 0.014008602 0.004531908 -3.0597876e-05 0.014205107 -0.009159736 -0.0008452554 -3.3395947e-05
0.0024046705 0.0037532118 0.0012052469 -0.000909868 0.017819494 0.009615347 0.009137457 0.014744706
0.015310627 -0.00206905 0.002218011 0.008616991 -0.00041473523 0.02194868 0.012503552 0.0065152287
-0.00014346553 0.010561542 -0.008240335 0.0037029558 0.003493727 -0.004317172 0.0017397618 0.007067522
-0.002606987 0.0463424 0.10320054 -0.0027604857 0.10267714 -0.026265305 -0.006939818 0.0007034227
0.000736948 0.060933094 -0.009486012 -0.0048836777 0.08579619 0.0022727035 0.005151308 0.09555344
0.06107179 -0.010678625 -0.006245278 -0.008566909 -0.0058456776 -0.0016892134 -0.0046164235 0.00022229887
0.0030563201 0.07797195 -0.0036642211 0.0017158333 0.020170715 -0.0008942796 -0.00557968 -0.007984167
0.0002118466 0.0066214823 -0.030898463 0.005613696 -0.06106917 0.03951707 0.0035682095 -0.005181712
0.0024411383 -0.00097470736 -0.004371458 0.0015237414 -0.12269829 -0.0015861641 0.0002544164 -0.11250231
0.057731 0.00042203948 0.0017804876 -0.008445164 0.0045644827 -0.039984353 -0.030197684 -0.0012276887
0.0031901905 -0.033783518 -0.00630191 -0.010107317 0.0570447 0.005267012 0.0003500862 -0.0029962184
-0.0013116489 -0.06502544 -0.00081080385 0.00827982 0.13139255 0.07203614 0.0040993276 0.027567979
0.0008642598 0.102891035 0.0064388025 -0.02425819 0.22112791 -0.004164971 0.0069953497 -0.016277445
0.21698797 -0.00081095786 -0.0005954603 -0.0019144639 0.03976251 0.17619325 -0.05737197 0.0043303147
0.051618535 0.04280479 0.009637712 0.00431961 -0.04686542 0.045464557 -0.004433511 -0.025674587

model.6.bias f4 [16]
00000000: 1eed 81bb 2cf4 413e 4e6a 2b3b 4c16 8d3d
00000010: 6fac b93c 2328 66bd df6b bd3d 4c29 2e3e
00000020: 8b83 aa3d dd7e 04bd e5d1 2a3d 5d71 293c
00000030: 55ec 313c 2871 593d 2569 663c 901f 9f3d
-0.003965034 0.189408 0.0026155892 0.068890184 0.02266523 -0.05619062 0.092490904 0.17007941
0.08325871 -0.03234755 0.041704077 0.010341969 0.010859569 0.05308643 0.014063154 0.07769692

model.8.weight f4 [8, 16]
00000000: f5d2 303d cc04 f1bd 8ea5 4c39 a34d a83d
00000010: 56aa 33bc 08dc 233e 1435 773d 361c 86be
00000020: 5811 9dbb 1bd0 1b3e f448 17ba 5c00 70bc
00000030: f389 d83c 63ac 7a3d eb33 253d fd5d 2a3e
00000040: 5567 11bc b006 7dbc 018e 87bb 88ac 3abb
00000050: da0d 41bd 82be 45bc a858 943c 605a 7bbc
00000060: c87c 67bc d486 86bc 4aac a3bc 4437 c83b
00000070: 1d32 b1bb 9a43 0dbc 0a4c b03c ca3c 2abb
00000080: e26e 2ebc c449 1c3c 5ffd 523c ea9f 7aba
00000090: e397 9d3a a888 793b 7bd7 81bb 62c1 e7bc
000000a0: 18bb 393a 6e06 77bc 9946 713b 5774 173c
000000b0: f5c2 e2ba fe27 8cbb bbbb 1d3c 6c37 c13b
000000c0: 9a41 a2bc 1c82 5dbe 4dbe 123c 1e96 41bd
000000d0: 9571 a63b 5ca9 04be 0fcf fcbd 3135 6fbd
000000e0: ff2c 273e dd5a 2cbe 18c6 ff3c b349 a33d
000000f0: 62cb ae3b bfe6 83be bf92 16be a416 49be
00000100: cc50 e63d 179a 1b3d d070 ccbc 48cc cb3d
00000110: bb95 c93a 82db 25bd 6b2a 78bd 4009 6cbe
00000120: 0d93 12bd ce38 24bd 03e1 b5bd af55 0a3d
00000130: 384f aa3c 41f5 3bbd 5b21 e4bd d2f8 1fbe
00000140: 3fb5 abbc 30b8 58bd c03f fb3c c212 753d
00000150: 11b2 f73c aec6 d8bd 0f3f 883d 97a2 51be
00000160: da7f bfbd bf67 69be fea5 45bb 6c59 033d
00000170: 44b2 c9b9 9215 fcbd 52a2 e13d c219 03be
00000180: bc02 313d cf5a f239 5297 22bc a37a 80bb
00000190: b8f8 94b9 a56f 463c e9ec 213c 52bc 1bbd
000001a0: 7f7a afbc 1092 b6bb 118c 12bc b510 ddbb
000001b0: 9818 14bd b0f3 423d 4871 8b3b 46bb 1b3b
000001c0: d6c8 efb9 0bd0 593d 2aac 04bd b54b eb3a
000001d0: abaf 763c ae0a 5e3c 028e ec3c 7310 523d
000001e0: c7e9 a23c b57a f23c b7e3 943c 8c62 c03b
000001f0: 89ed 4a3b e553 a73d dde4 b43c edb6 4c3d
0.043169934 -0.11768493 0.0001951663 0.08217933 -0.010965904 0.16001904 0.060353354 -0.26193398
-0.0047933273 0.15216105 -0.0005771064 -0.014648523 0.026432967 0.061199557 0.040332716 0.16637416
-0.008874734 -0.015443489 -0.004136801 -0.0028484184 -0.04713235 -0.012069346 0.01810868 -0.015341371
-0.014128871 -0.016421713 -0.019979615 0.006110104 -0.0054075853 -0.0086220745 0.021520633 -0.0025976175
-0.010646554 0.0095390715 0.012877791 -0.0009560572 0.0012023415 0.0038075838 -0.003962455 -0.028290454
0.0007085069 -0.015077217 0.003681576 0.009244046 -0.0017300533 -0.0042772284 0.009627278 0.0058964994
-0.019806672 -0.21631664 0.008956504 -0.047262304 0.005079458 -0.1295523 -0.12344181 -0.058400337
0.16325758 -0.16831537 0.031222388 0.079730414 0.0053343037 -0.25761983 -0.14704417 -0.19637543
0.112458795 0.03798875 -0.024956137 0.09951073 0.0015379706 -0.040492542 -0.060587328 -0.23050404
-0.03578477 -0.040093236 -0.08880808 0.03377312 0.020789728 -0.04588819 -0.111391746 -0.15622261
-0.020960448 -0.05291003 0.030670047 0.059832342 0.030236276 -0.1058477 0.066526525 -0.2047218
-0.093505576 -0.22793482 -0.0030158754 0.0320677 -0.00038470526 -0.12308802 0.11017288 -0.12802795
0.0432155 0.00046225495 -0.009923773 -0.0039208694 -0.0002841407 0.012111579 0.009883144 -0.038021393
-0.021420715 -0.005571611 -0.008944527 -0.0067463764 -0.036156267 0.04759568 0.0042554475 0.0023762747
-0.00045735267 0.05317692 -0.03239075 0.001795164 0.015056531 0.013552351 0.028876308 0.05128522
0.019886864 0.029599527 0.01817499 0.0058711227 0.0030964336 0.081702985 0.022081787 0.04997914

model.8.bias f4 [8]
00000000: 3822 12be dfdc 38bc 1eaa 93bc 1a49 2b3e
00000010: 23f8 de3b 08d5 253e c5f1 1bbd 66ad 433d
-0.14270866 -0.0112831285 -0.018025454 0.16727105 0.0068044825 0.16194546 -0.038072366 0.047772788

model.10.weight f4 [1, 8]
00000000: 5a8c 3bbe 78ee c1bd f129 1a3c dabb babd
00000010: daf4 74be 0436 5f3b 8012 983b e82e 563d
-0.18315259 -0.094693124 0.009409414 -0.09117861 -0.23921528 0.0034059295 0.0046408772 0.052290827
